model_zoo/rnnoise_INT8.tflite (tflite, 113472 bytes, 9 tensors)

model_1/denoise_gru/gru_cell_5/MatMul i1 [288, 114] scale=0.003929134 zero_point=0
0	0xd1	-0.1846693
1	0x26	0.14930709
2	0xd5	-0.16895276
3	0x01	0.003929134
4	0xfe	-0.007858268
5	0xf6	-0.03929134
6	0xfb	-0.01964567
7	0x0a	0.03929134
8	0xfa	-0.023574803
9	0xf9	-0.027503937
10	0x24	0.14144883
11	0x1b	0.10608662
12	0xf6	-0.03929134
13	0xde	-0.13359055
14	0x03	0.0117874015
15	0x01	0.003929134
16	0xf0	-0.062866144
17	0xfe	-0.007858268
18	0xfa	-0.023574803
19	0xf0	-0.062866144
20	0x00	0.0
21	0x02	0.007858268
22	0x21	0.12966143
23	0x21	0.12966143
24	0x0f	0.05893701
25	0x77	0.46756694
26	0xa7	-0.3496929
27	0x41	0.2553937
28	0x31	0.19252756
29	0xc3	-0.23967718
30	0x37	0.21610238
31	0xd1	-0.1846693
32	0x21	0.12966143
33	0xe9	-0.09037008
34	0xcd	-0.20038584
35	0x26	0.14930709
36	0xa7	-0.3496929
37	0xcf	-0.19252756
38	0x65	0.39684254
39	0x51	0.31825987
40	0xbd	-0.263252
41	0x51	0.31825987
42	0x7e	0.49507087
43	0x05	0.01964567
44	0x20	0.12573229
45	0x2d	0.17681102
46	0x17	0.09037008
47	0x97	-0.41255906
48	0x05	0.01964567
49	0x19	0.09822835
50	0x56	0.33790553
51	0xf4	-0.047149606
52	0xb8	-0.28289765
53	0x3b	0.2318189
54	0x0a	0.03929134
55	0x5e	0.3693386
56	0x5a	0.35362205
57	0x37	0.21610238
58	0xd6	-0.16502362
59	0x3f	0.24753544
60	0x62	0.38505512
61	0xe7	-0.09822835
62	0x8e	-0.44792128
63	0x24	0.14144883
64	0x0a	0.03929134
65	0x26	0.14930709
66	0xf7	-0.035362206
67	0xfc	-0.015716536
68	0x4a	0.29075593
69	0x07	0.027503937
70	0xbd	-0.263252
71	0x0e	0.055007875
72	0xff	-0.003929134
73	0xfe	-0.007858268
74	0x01	0.003929134
75	0x10	0.062866144
76	0x0c	0.047149606
77	0xee	-0.07072441
78	0x07	0.027503937
79	0x10	0.062866144
80	0xe3	-0.11394489
81	0xe1	-0.12180316
82	0x3b	0.2318189
83	0x10	0.062866144
84	0x3d	0.23967718
85	0x25	0.14537796
86	0x79	0.4754252
87	0xcb	-0.2082441
88	0xe2	-0.11787402
89	0x1e	0.11787402
90	0x94	-0.42434648
91	0x3b	0.2318189
92	0x74	0.45577955
93	0xfa	-0.023574803
94	0xef	-0.066795275
95	0xeb	-0.08251181
96	0xfd	-0.0117874015
97	0x86	-0.47935435
98	0x3c	0.23574804
99	0xa9	-0.34183466
100	0x0c	0.047149606
101	0x3e	0.24360631
102	0xc6	-0.22788978
103	0x63	0.38898426
104	0x6b	0.42041734
105	0xdf	-0.12966143
106	0x9f	-0.381126
107	0x9f	-0.381126
108	0x15	0.08251181
109	0x3a	0.22788978
110	0x50	0.31433073
111	0xcd	-0.20038584
112	0x00	0.0
113	0x15	0.08251181
114	0x27	0.15323623
115	0x11	0.066795275
116	0xf0	-0.062866144
117	0x23	0.13751969
118	0xfd	-0.0117874015
119	0x06	0.023574803
120	0xfb	-0.01964567
121	0x0c	0.047149606
122	0xed	-0.07465354
123	0x0d	0.05107874
124	0xf1	-0.05893701
125	0x1a	0.10215748
126	0xe6	-0.10215748
127	0x14	0.07858268
128	0xef	-0.066795275
129	0xca	-0.21217324
130	0xea	-0.08644095
131	0x01	0.003929134
132	0x06	0.023574803
133	0xe5	-0.10608662
134	0xf7	-0.035362206
135	0xf1	-0.05893701
136	0xd4	-0.1728819
137	0xf7	-0.035362206
138	0x36	0.21217324
139	0x1b	0.10608662
140	0x3d	0.23967718
141	0x74	0.45577955
142	0xf4	-0.047149606
143	0x37	0.21610238
144	0x45	0.27111024
145	0xd8	-0.15716536
146	0x16	0.08644095
147	0xd1	-0.1846693
148	0x28	0.15716536
149	0x3c	0.23574804
150	0x2c	0.1728819
151	0x0b	0.043220475
152	0x61	0.381126
153	0xc6	-0.22788978
154	0xed	-0.07465354
155	0x06	0.023574803
156	0xde	-0.13359055
157	0x04	0.015716536
158	0x2a	0.16502362
159	0xb0	-0.31433073
160	0x2f	0.1846693
161	0xc6	-0.22788978
162	0xf0	-0.062866144
163	0xb6	-0.29075593
164	0xe5	-0.10608662
165	0xfa	-0.023574803
166	0x0a	0.03929134
167	0x0a	0.03929134
168	0x29	0.16109449
169	0x19	0.09822835
170	0xd3	-0.17681102
171	0x22	0.13359055
172	0xd7	-0.16109449
173	0x3b	0.2318189
174	0x5a	0.35362205
175	0xf6	-0.03929134
176	0x21	0.12966143
177	0xc7	-0.22396064
178	0x18	0.09429921
179	0xbd	-0.263252
180	0x2a	0.16502362
181	0x26	0.14930709
182	0x68	0.40862992
183	0xfa	-0.023574803
184	0x3d	0.23967718
185	0x27	0.15323623
186	0x06	0.023574803
187	0xf2	-0.055007875
188	0xfc	-0.015716536
189	0x15	0.08251181
190	0x12	0.07072441
191	0x24	0.14144883
192	0xed	-0.07465354
193	0xd4	-0.1728819
194	0xd8	-0.15716536
195	0x24	0.14144883
196	0x41	0.2553937
197	0x7a	0.47935435
198	0x21	0.12966143
199	0x06	0.023574803
200	0xa2	-0.3693386
201	0x2a	0.16502362
202	0x22	0.13359055
203	0x71	0.44399214
204	0x8c	-0.45577955
205	0x45	0.27111024
206	0x19	0.09822835
207	0xc1	-0.24753544
208	0x46	0.27503937
209	0xe2	-0.11787402
210	0x2c	0.1728819
211	0xb3	-0.3025433
212	0x7c	0.48721263
213	0x83	-0.49114174
214	0xfb	-0.01964567
215	0xf9	-0.027503937
216	0xfa	-0.023574803
217	0xf4	-0.047149606
218	0xd6	-0.16502362
219	0xbb	-0.27111024
220	0x1f	0.12180316
221	0x00	0.0
222	0x00	0.0
223	0xc0	-0.25146458
224	0x1a	0.10215748
225	0x1a	0.10215748
226	0x1d	0.11394489
227	0x31	0.19252756
228	0x2c	0.1728819
229	0xe6	-0.10215748
230	0x5a	0.35362205
231	0x26	0.14930709
232	0xce	-0.1964567
233	0x20	0.12573229
234	0x0b	0.043220475
235	0xf2	-0.055007875
236	0x1e	0.11787402
237	0xfb	-0.01964567
238	0x0b	0.043220475
239	0x0f	0.05893701
240	0x0f	0.05893701
241	0xde	-0.13359055
242	0xc9	-0.21610238
243	0x03	0.0117874015
244	0x16	0.08644095
245	0x06	0.023574803
246	0xc9	-0.21610238
247	0x0e	0.055007875
248	0x13	0.07465354
249	0xe9	-0.09037008
250	0xe1	-0.12180316
251	0xeb	-0.08251181
252	0xf8	-0.031433072
253	0xf9	-0.027503937
254	0x44	0.2671811
255	0xbc	-0.2671811

model_1/denoise_gru/gru_cell_5/MatMul_1 i1 [288, 96] scale=0.003929134 zero_point=0
0	0x79	0.4754252
1	0x58	0.3457638
2	0x7d	0.49114174
3	0xaa	-0.33790553
4	0xd6	-0.16502362
5	0xb9	-0.2789685
6	0xfd	-0.0117874015
7	0xc7	-0.22396064
8	0x4f	0.3104016
9	0x48	0.28289765
10	0x82	-0.49507087
11	0x3f	0.24753544
12	0x79	0.4754252
13	0xfe	-0.007858268
14	0xeb	-0.08251181
15	0x9a	-0.40077168
16	0x3c	0.23574804
17	0x1a	0.10215748
18	0xd1	-0.1846693
19	0x24	0.14144883
20	0x3f	0.24753544
21	0x3a	0.22788978
22	0x37	0.21610238
23	0xa2	-0.3693386
24	0xbd	-0.263252
25	0x84	-0.48721263
26	0xed	-0.07465354
27	0x81	-0.499
28	0x05	0.01964567
29	0x75	0.4597087
30	0xfa	-0.023574803
31	0xe9	-0.09037008
32	0x70	0.440063
33	0xe4	-0.11001575
34	0x1c	0.11001575
35	0x17	0.09037008
36	0x39	0.22396064
37	0x81	-0.499
38	0x63	0.38898426
39	0x6e	0.43220475
40	0x7e	0.49507087
41	0x02	0.007858268
42	0x95	-0.42041734
43	0xcf	-0.19252756
44	0xf1	-0.05893701
45	0x63	0.38898426
46	0x4d	0.3025433
47	0xe2	-0.11787402
48	0x92	-0.43220475
49	0x27	0.15323623
50	0xc9	-0.21610238
51	0xec	-0.07858268
52	0xa9	-0.34183466
53	0xbf	-0.2553937
54	0x41	0.2553937
55	0x8c	-0.45577955
56	0x2f	0.1846693
57	0x16	0.08644095
58	0xf8	-0.031433072
59	0xb1	-0.3104016
60	0x79	0.4754252
61	0xd6	-0.16502362
62	0x7e	0.49507087
63	0x84	-0.48721263
64	0x5c	0.36148033
65	0x3d	0.23967718
66	0x36	0.21217324
67	0xb3	-0.3025433
68	0x6e	0.43220475
69	0x73	0.4518504
70	0xcc	-0.20431496
71	0x7d	0.49114174
72	0x0e	0.055007875
73	0xf1	-0.05893701
74	0x3d	0.23967718
75	0xbb	-0.27111024
76	0x09	0.035362206
77	0xee	-0.07072441
78	0xcb	-0.2082441
79	0x9a	-0.40077168
80	0x13	0.07465354
81	0xc1	-0.24753544
82	0x18	0.09429921
83	0x8f	-0.44399214
84	0xb1	-0.3104016
85	0xb2	-0.30647245
86	0xe6	-0.10215748
87	0x27	0.15323623
88	0x41	0.2553937
89	0x7e	0.49507087
90	0x76	0.4636378
91	0x39	0.22396064
92	0x84	-0.48721263
93	0x89	-0.46756694
94	0x7f	0.499
95	0x91	-0.43613386
96	0x0a	0.03929134
97	0xdc	-0.14144883
98	0xa6	-0.35362205
99	0x10	0.062866144
100	0x81	-0.499
101	0x77	0.46756694
102	0x19	0.09822835
103	0x17	0.09037008
104	0xe0	-0.12573229
105	0xbd	-0.263252
106	0x42	0.25932285
107	0x41	0.2553937
108	0x7b	0.4832835
109	0xc3	-0.23967718
110	0xff	-0.003929134
111	0x33	0.20038584
112	0x04	0.015716536
113	0xea	-0.08644095
114	0x73	0.4518504
115	0x28	0.15716536
116	0xf0	-0.062866144
117	0xec	-0.07858268
118	0xf1	-0.05893701
119	0x01	0.003929134
120	0x6e	0.43220475
121	0x29	0.16109449
122	0x1d	0.11394489
123	0x2d	0.17681102
124	0x10	0.062866144
125	0x2d	0.17681102
126	0xe7	-0.09822835
127	0x05	0.01964567
128	0x1f	0.12180316
129	0x08	0.031433072
130	0xcd	-0.20038584
131	0xda	-0.14930709
132	0x3d	0.23967718
133	0x51	0.31825987
134	0x39	0.22396064
135	0xdd	-0.13751969
136	0xd6	-0.16502362
137	0x3f	0.24753544
138	0xc2	-0.24360631
139	0x4b	0.29468504
140	0x68	0.40862992
141	0x12	0.07072441
142	0x17	0.09037008
143	0x4f	0.3104016
144	0xe1	-0.12180316
145	0xba	-0.27503937
146	0xa6	-0.35362205
147	0xf4	-0.047149606
148	0x2b	0.16895276
149	0x24	0.14144883
150	0x26	0.14930709
151	0xc8	-0.2200315
152	0x12	0.07072441
153	0x03	0.0117874015
154	0xe6	-0.10215748
155	0x3e	0.24360631
156	0x76	0.4636378
157	0xbe	-0.25932285
158	0xed	-0.07465354
159	0x38	0.2200315
160	0x36	0.21217324
161	0xec	-0.07858268
162	0xee	-0.07072441
163	0xf2	-0.055007875
164	0x56	0.33790553
165	0x50	0.31433073
166	0xbf	-0.2553937
167	0x87	-0.4754252
168	0xec	-0.07858268
169	0xb9	-0.2789685
170	0x23	0.13751969
171	0xbc	-0.2671811
172	0x34	0.20431496
173	0x39	0.22396064
174	0xa3	-0.36540946
175	0x04	0.015716536
176	0x25	0.14537796
177	0x26	0.14930709
178	0xdf	-0.12966143
179	0x21	0.12966143
180	0xc2	-0.24360631
181	0x39	0.22396064
182	0x40	0.25146458
183	0x2f	0.1846693
184	0x23	0.13751969
185	0xbf	-0.2553937
186	0xdb	-0.14537796
187	0xb5	-0.29468504
188	0x28	0.15716536
189	0x0a	0.03929134
190	0xa3	-0.36540946
191	0xf0	-0.062866144
192	0x4f	0.3104016
193	0xb9	-0.2789685
194	0x2c	0.1728819
195	0x4f	0.3104016
196	0x91	-0.43613386
197	0x00	0.0
198	0x17	0.09037008
199	0xbc	-0.2671811
200	0xe9	-0.09037008
201	0x26	0.14930709
202	0x6c	0.42434648
203	0xfa	-0.023574803
204	0x26	0.14930709
205	0x88	-0.47149608
206	0xd0	-0.18859842
207	0x17	0.09037008
208	0x05	0.01964567
209	0x5c	0.36148033
210	0xf0	-0.062866144
211	0x25	0.14537796
212	0xf0	-0.062866144
213	0xae	-0.32218897
214	0x8f	-0.44399214
215	0x15	0.08251181
216	0x2b	0.16895276
217	0x1a	0.10215748
218	0x3b	0.2318189
219	0xca	-0.21217324
220	0x1b	0.10608662
221	0x83	-0.49114174
222	0xfa	-0.023574803
223	0x17	0.09037008
224	0x7f	0.499
225	0xd8	-0.15716536
226	0x37	0.21610238
227	0xbe	-0.25932285
228	0xf5	-0.043220475
229	0xe5	-0.10608662
230	0x5e	0.3693386
231	0xac	-0.33004725
232	0xbb	-0.27111024
233	0xb0	-0.31433073
234	0x75	0.4597087
235	0x13	0.07465354
236	0x50	0.31433073
237	0xd3	-0.17681102
238	0xec	-0.07858268
239	0x49	0.2868268
240	0xda	-0.14930709
241	0x49	0.2868268
242	0x10	0.062866144
243	0x18	0.09429921
244	0x2d	0.17681102
245	0xcb	-0.2082441
246	0x6d	0.42827561
247	0x0a	0.03929134
248	0xe9	-0.09037008
249	0x29	0.16109449
250	0x6e	0.43220475
251	0xc7	-0.22396064
252	0x5b	0.3575512
253	0xf7	-0.035362206
254	0x35	0.2082441
255	0xf4	-0.047149606

model_1/denoise_output/Tensordot/MatMul i1 [22, 96] scale=0.003929134 zero_point=0
0	0x1e	0.11787402
1	0xc3	-0.23967718
2	0xfd	-0.0117874015
3	0x19	0.09822835
4	0x0b	0.043220475
5	0xd9	-0.15323623
6	0x01	0.003929134
7	0xef	-0.066795275
8	0x6b	0.42041734
9	0xe6	-0.10215748
10	0x0d	0.05107874
11	0x07	0.027503937
12	0xe9	-0.09037008
13	0xe0	-0.12573229
14	0xc8	-0.2200315
15	0x23	0.13751969
16	0xac	-0.33004725
17	0x02	0.007858268
18	0x27	0.15323623
19	0xf8	-0.031433072
20	0x2d	0.17681102
21	0x82	-0.49507087
22	0xe1	-0.12180316
23	0xff	-0.003929134
24	0x3f	0.24753544
25	0xf4	-0.047149606
26	0x0f	0.05893701
27	0xfe	-0.007858268
28	0x06	0.023574803
29	0xaf	-0.31825987
30	0x18	0.09429921
31	0x0e	0.055007875
32	0xda	-0.14930709
33	0x05	0.01964567
34	0xfd	-0.0117874015
35	0xc2	-0.24360631
36	0x21	0.12966143
37	0x20	0.12573229
38	0xe6	-0.10215748
39	0x19	0.09822835
40	0xfa	-0.023574803
41	0xf9	-0.027503937
42	0x02	0.007858268
43	0x19	0.09822835
44	0xec	-0.07858268
45	0x4e	0.30647245
46	0x7f	0.499
47	0x66	0.40077168
48	0x0a	0.03929134
49	0x00	0.0
50	0xe6	-0.10215748
51	0x76	0.4636378
52	0xff	-0.003929134
53	0x57	0.34183466
54	0x57	0.34183466
55	0x10	0.062866144
56	0x18	0.09429921
57	0x81	-0.499
58	0x50	0.31433073
59	0x29	0.16109449
60	0x5f	0.37326774
61	0x27	0.15323623
62	0x16	0.08644095
63	0x0d	0.05107874
64	0xd7	-0.16109449
65	0x87	-0.4754252
66	0xd8	-0.15716536
67	0x05	0.01964567
68	0x81	-0.499
69	0xd0	-0.18859842
70	0x41	0.2553937
71	0x14	0.07858268
72	0xe5	-0.10608662
73	0xcb	-0.2082441
74	0xf9	-0.027503937
75	0x04	0.015716536
76	0x2d	0.17681102
77	0x21	0.12966143
78	0x05	0.01964567
79	0x0b	0.043220475
80	0x5c	0.36148033
81	0x17	0.09037008
82	0xde	-0.13359055
83	0x15	0.08251181
84	0x01	0.003929134
85	0x29	0.16109449
86	0x92	-0.43220475
87	0xf6	-0.03929134
88	0x10	0.062866144
89	0x10	0.062866144
90	0xd1	-0.1846693
91	0x06	0.023574803
92	0xf0	-0.062866144
93	0x2b	0.16895276
94	0xfd	-0.0117874015
95	0xe7	-0.09822835
96	0x16	0.08644095
97	0xcb	-0.2082441
98	0xce	-0.1964567
99	0x21	0.12966143
100	0x33	0.20038584
101	0xd3	-0.17681102
102	0xd5	-0.16895276
103	0xe0	-0.12573229
104	0x01	0.003929134
105	0xe7	-0.09822835
106	0x05	0.01964567
107	0x49	0.2868268
108	0xea	-0.08644095
109	0xd3	-0.17681102
110	0xe9	-0.09037008
111	0x4b	0.29468504
112	0xa2	-0.3693386
113	0xdb	-0.14537796
114	0xf2	-0.055007875
115	0xf2	-0.055007875
116	0x2a	0.16502362
117	0x82	-0.49507087
118	0xeb	-0.08251181
119	0xf9	-0.027503937
120	0x44	0.2671811
121	0x47	0.2789685
122	0x12	0.07072441
123	0x07	0.027503937
124	0x00	0.0
125	0xdd	-0.13751969
126	0x0c	0.047149606
127	0x0c	0.047149606
128	0xd6	-0.16502362
129	0x11	0.066795275
130	0xd5	-0.16895276
131	0x06	0.023574803
132	0x76	0.4636378
133	0x4a	0.29075593
134	0xcb	-0.2082441
135	0x02	0.007858268
136	0xf6	-0.03929134
137	0x09	0.035362206
138	0x1c	0.11001575
139	0x37	0.21610238
140	0xd7	-0.16109449
141	0x54	0.33004725
142	0x7f	0.499
143	0x7e	0.49507087
144	0x7f	0.499
145	0xef	-0.066795275
146	0xee	-0.07072441
147	0x60	0.37719685
148	0x2e	0.18074016
149	0x33	0.20038584
150	0x61	0.381126
151	0xf4	-0.047149606
152	0x1a	0.10215748
153	0x93	-0.42827561
154	0x3e	0.24360631
155	0x20	0.12573229
156	0x46	0.27503937
157	0x33	0.20038584
158	0x1d	0.11394489
159	0x0c	0.047149606
160	0xda	-0.14930709
161	0x9f	-0.381126
162	0xb4	-0.29861417
163	0x36	0.21217324
164	0x1b	0.10608662
165	0xd4	-0.1728819
166	0x37	0.21610238
167	0xec	-0.07858268
168	0x10	0.062866144
169	0xcf	-0.19252756
170	0x0d	0.05107874
171	0xff	-0.003929134
172	0x4a	0.29075593
173	0x4f	0.3104016
174	0xf8	-0.031433072
175	0x2d	0.17681102
176	0x73	0.4518504
177	0x7f	0.499
178	0x97	-0.41255906
179	0x42	0.25932285
180	0xf7	-0.035362206
181	0x37	0.21610238
182	0xb4	-0.29861417
183	0x28	0.15716536
184	0x07	0.027503937
185	0x01	0.003929134
186	0xe6	-0.10215748
187	0x0c	0.047149606
188	0x18	0.09429921
189	0x39	0.22396064
190	0x1b	0.10608662
191	0xe7	-0.09822835
192	0x0b	0.043220475
193	0xe4	-0.11001575
194	0xb2	-0.30647245
195	0x24	0.14144883
196	0x52	0.32218897
197	0xde	-0.13359055
198	0x8d	-0.4518504
199	0xee	-0.07072441
200	0xd3	-0.17681102
201	0xd2	-0.18074016
202	0xf1	-0.05893701
203	0x67	0.40470082
204	0x09	0.035362206
205	0xea	-0.08644095
206	0x16	0.08644095
207	0x4f	0.3104016
208	0xab	-0.3339764
209	0xc4	-0.23574804
210	0x0a	0.03929134
211	0xe5	-0.10608662
212	0x12	0.07072441
213	0x85	-0.4832835
214	0xf1	-0.05893701
215	0xe7	-0.09822835
216	0x41	0.2553937
217	0x68	0.40862992
218	0x35	0.2082441
219	0x22	0.13359055
220	0x11	0.066795275
221	0x40	0.25146458
222	0x05	0.01964567
223	0x08	0.031433072
224	0x1a	0.10215748
225	0x36	0.21217324
226	0xd7	-0.16109449
227	0x22	0.13359055
228	0x7f	0.499
229	0x41	0.2553937
230	0x99	-0.40470082
231	0xdc	-0.14144883
232	0xdd	-0.13751969
233	0x38	0.2200315
234	0x23	0.13751969
235	0x3e	0.24360631
236	0x14	0.07858268
237	0x38	0.2200315
238	0x3f	0.24753544
239	0x7e	0.49507087
240	0x7f	0.499
241	0xde	-0.13359055
242	0x0f	0.05893701
243	0x27	0.15323623
244	0x40	0.25146458
245	0x1c	0.11001575
246	0x7f	0.499
247	0x07	0.027503937
248	0xed	-0.07465354
249	0xd4	-0.1728819
250	0x19	0.09822835
251	0xf8	-0.031433072
252	0x29	0.16109449
253	0x20	0.12573229
254	0x2a	0.16502362
255	0x12	0.07072441

Tensordot/MatMul;model_1/fc1/StatefulPartitionedCall/Tensordot/MatMul i1 [24, 42] scale=0.003929134 zero_point=0
0	0xf9	-0.027503937
1	0x18	0.09429921
2	0x17	0.09037008
3	0xf6	-0.03929134
4	0xc6	-0.22788978
5	0xdd	-0.13751969
6	0xec	-0.07858268
7	0x3a	0.22788978
8	0x61	0.381126
9	0x72	0.44792128
10	0x63	0.38898426
11	0x7e	0.49507087
12	0x3a	0.22788978
13	0xa8	-0.3457638
14	0xca	-0.21217324
15	0x02	0.007858268
16	0x60	0.37719685
17	0x74	0.45577955
18	0x56	0.33790553
19	0xfa	-0.023574803
20	0x68	0.40862992
21	0x79	0.4754252
22	0x84	-0.48721263
23	0x18	0.09429921
24	0xcc	-0.20431496
25	0xe3	-0.11394489
26	0x7f	0.499
27	0x2a	0.16502362
28	0xbd	-0.263252
29	0x82	-0.49507087
30	0x16	0.08644095
31	0xa8	-0.3457638
32	0x96	-0.4164882
33	0x8e	-0.44792128
34	0xb6	-0.29075593
35	0xbe	-0.25932285
36	0xf5	-0.043220475
37	0xe4	-0.11001575
38	0x4a	0.29075593
39	0x4b	0.29468504
40	0x83	-0.49114174
41	0x4c	0.29861417
42	0x02	0.007858268
43	0xfc	-0.015716536
44	0xeb	-0.08251181
45	0xf0	-0.062866144
46	0xfe	-0.007858268
47	0x0e	0.055007875
48	0x67	0.40470082
49	0x10	0.062866144
50	0x9a	-0.40077168
51	0x63	0.38898426
52	0x31	0.19252756
53	0x22	0.13359055
54	0xde	-0.13359055
55	0x9a	-0.40077168
56	0x29	0.16109449
57	0x96	-0.4164882
58	0x0d	0.05107874
59	0x99	-0.40470082
60	0x10	0.062866144
61	0x45	0.27111024
62	0xc0	-0.25146458
63	0xac	-0.33004725
64	0x85	-0.4832835
65	0x81	-0.499
66	0xc2	-0.24360631
67	0x7f	0.499
68	0x8c	-0.45577955
69	0x5d	0.36540946
70	0xc5	-0.2318189
71	0xc3	-0.23967718
72	0x1d	0.11394489
73	0x09	0.035362206
74	0x9a	-0.40077168
75	0x0d	0.05107874
76	0xee	-0.07072441
77	0x10	0.062866144
78	0x24	0.14144883
79	0xd2	-0.18074016
80	0x28	0.15716536
81	0x22	0.13359055
82	0xf9	-0.027503937
83	0xbd	-0.263252
84	0x10	0.062866144
85	0x0f	0.05893701
86	0xf7	-0.035362206
87	0xfb	-0.01964567
88	0xef	-0.066795275
89	0xe4	-0.11001575
90	0xc7	-0.22396064
91	0xc7	-0.22396064
92	0x8e	-0.44792128
93	0x42	0.25932285
94	0xca	-0.21217324
95	0x24	0.14144883
96	0x21	0.12966143
97	0xf6	-0.03929134
98	0x12	0.07072441
99	0x5a	0.35362205
100	0x71	0.44399214
101	0x69	0.41255906
102	0x3c	0.23574804
103	0xe4	-0.11001575
104	0xb2	-0.30647245
105	0x84	-0.48721263
106	0xe8	-0.09429921
107	0x7e	0.49507087
108	0x14	0.07858268
109	0x6d	0.42827561
110	0x7c	0.48721263
111	0xaa	-0.33790553
112	0xbb	-0.27111024
113	0x32	0.1964567
114	0xba	-0.27503937
115	0x9f	-0.381126
116	0xfc	-0.015716536
117	0x85	-0.4832835
118	0x8f	-0.44399214
119	0x98	-0.40862992
120	0x56	0.33790553
121	0x77	0.46756694
122	0x58	0.3457638
123	0x33	0.20038584
124	0x37	0.21610238
125	0xf5	-0.043220475
126	0x03	0.0117874015
127	0x01	0.003929134
128	0x05	0.01964567
129	0x13	0.07465354
130	0xf5	-0.043220475
131	0xe0	-0.12573229
132	0xfd	-0.0117874015
133	0x0b	0.043220475
134	0xf1	-0.05893701
135	0x84	-0.48721263
136	0xe6	-0.10215748
137	0xde	-0.13359055
138	0xd6	-0.16502362
139	0xd5	-0.16895276
140	0x59	0.3496929
141	0xe1	-0.12180316
142	0xde	-0.13359055
143	0x05	0.01964567
144	0x95	-0.42041734
145	0xaf	-0.31825987
146	0x92	-0.43220475
147	0xcc	-0.20431496
148	0x60	0.37719685
149	0x83	-0.49114174
150	0x76	0.4636378
151	0x7d	0.49114174
152	0x86	-0.47935435
153	0x73	0.4518504
154	0x8d	-0.4518504
155	0x8a	-0.4636378
156	0x6b	0.42041734
157	0x67	0.40470082
158	0xe7	-0.09822835
159	0x52	0.32218897
160	0x7c	0.48721263
161	0x7b	0.4832835
162	0x2f	0.1846693
163	0x79	0.4754252
164	0x52	0.32218897
165	0x18	0.09429921
166	0x1c	0.11001575
167	0x15	0.08251181
168	0xfd	-0.0117874015
169	0x26	0.14930709
170	0x5f	0.37326774
171	0x67	0.40470082
172	0xdf	-0.12966143
173	0xf3	-0.05107874
174	0x78	0.47149608
175	0x7b	0.4832835
176	0x87	-0.4754252
177	0xdd	-0.13751969
178	0x31	0.19252756
179	0x1b	0.10608662
180	0x9b	-0.39684254
181	0xae	-0.32218897
182	0x85	-0.4832835
183	0xcb	-0.2082441
184	0x64	0.3929134
185	0x82	-0.49507087
186	0x82	-0.49507087
187	0x92	-0.43220475
188	0xb9	-0.2789685
189	0xb2	-0.30647245
190	0xc6	-0.22788978
191	0xf6	-0.03929134
192	0xfd	-0.0117874015
193	0x4e	0.30647245
194	0xb2	-0.30647245
195	0xe3	-0.11394489
196	0xfe	-0.007858268
197	0x10	0.062866144
198	0x5f	0.37326774
199	0x3e	0.24360631
200	0xfd	-0.0117874015
201	0x1a	0.10215748
202	0x86	-0.47935435
203	0x89	-0.46756694
204	0xc3	-0.23967718
205	0x08	0.031433072
206	0xa9	-0.34183466
207	0x8a	-0.4636378
208	0xfa	-0.023574803
209	0xd5	-0.16895276
210	0xfe	-0.007858268
211	0xff	-0.003929134
212	0xff	-0.003929134
213	0x0a	0.03929134
214	0x06	0.023574803
215	0xf4	-0.047149606
216	0x99	-0.40470082
217	0x07	0.027503937
218	0x4f	0.3104016
219	0x5a	0.35362205
220	0xb8	-0.28289765
221	0xa9	-0.34183466
222	0x26	0.14930709
223	0xae	-0.32218897
224	0xaf	-0.31825987
225	0xce	-0.1964567
226	0x04	0.015716536
227	0x5b	0.3575512
228	0x78	0.47149608
229	0x27	0.15323623
230	0x72	0.44792128
231	0x78	0.47149608
232	0x81	-0.499
233	0x7d	0.49114174
234	0x7f	0.499
235	0x89	-0.46756694
236	0x03	0.0117874015
237	0x79	0.4754252
238	0x81	-0.499
239	0x28	0.15716536
240	0x7e	0.49507087
241	0xea	-0.08644095
242	0xcb	-0.2082441
243	0x2b	0.16895276
244	0x82	-0.49507087
245	0x85	-0.4832835
246	0xa6	-0.35362205
247	0x1d	0.11394489
248	0xdb	-0.14537796
249	0x12	0.07072441
250	0x00	0.0
251	0xd5	-0.16895276
252	0xfb	-0.01964567
253	0xe8	-0.09429921
254	0xc9	-0.21610238
255	0xf0	-0.062866144

model_1/noise_gru/gru_cell_4/MatMul i1 [144, 90] scale=0.003929134 zero_point=0
0	0x23	0.13751969
1	0x18	0.09429921
2	0xe9	-0.09037008
3	0x11	0.066795275
4	0x3b	0.2318189
5	0x0e	0.055007875
6	0x7a	0.47935435
7	0x0a	0.03929134
8	0xfb	-0.01964567
9	0x18	0.09429921
10	0xe4	-0.11001575
11	0xfa	-0.023574803
12	0xea	-0.08644095
13	0x01	0.003929134
14	0x10	0.062866144
15	0x45	0.27111024
16	0x83	-0.49114174
17	0x2f	0.1846693
18	0x10	0.062866144
19	0xd1	-0.1846693
20	0x25	0.14537796
21	0xd9	-0.15323623
22	0xde	-0.13359055
23	0xb7	-0.2868268
24	0xe4	-0.11001575
25	0xf3	-0.05107874
26	0x08	0.031433072
27	0x24	0.14144883
28	0xf7	-0.035362206
29	0xeb	-0.08251181
30	0x12	0.07072441
31	0x5a	0.35362205
32	0x26	0.14930709
33	0xfb	-0.01964567
34	0xf8	-0.031433072
35	0x25	0.14537796
36	0xe9	-0.09037008
37	0x02	0.007858268
38	0x26	0.14930709
39	0x29	0.16109449
40	0x0e	0.055007875
41	0xbf	-0.2553937
42	0x0b	0.043220475
43	0xf9	-0.027503937
44	0xf8	-0.031433072
45	0x1e	0.11787402
46	0xac	-0.33004725
47	0xa1	-0.37326774
48	0x03	0.0117874015
49	0x0a	0.03929134
50	0x13	0.07465354
51	0xf1	-0.05893701
52	0xe0	-0.12573229
53	0x1b	0.10608662
54	0x68	0.40862992
55	0xe6	-0.10215748
56	0x8f	-0.44399214
57	0x20	0.12573229
58	0x7e	0.49507087
59	0x7f	0.499
60	0x7b	0.4832835
61	0xf2	-0.055007875
62	0x54	0.33004725
63	0x81	-0.499
64	0x89	-0.46756694
65	0xb6	-0.29075593
66	0x89	-0.46756694
67	0x11	0.066795275
68	0x66	0.40077168
69	0x84	-0.48721263
70	0x0f	0.05893701
71	0xfd	-0.0117874015
72	0xcd	-0.20038584
73	0x85	-0.4832835
74	0x0d	0.05107874
75	0xb0	-0.31433073
76	0xff	-0.003929134
77	0x42	0.25932285
78	0xf8	-0.031433072
79	0xf6	-0.03929134
80	0xdc	-0.14144883
81	0xb3	-0.3025433
82	0x1c	0.11001575
83	0x79	0.4754252
84	0xce	-0.1964567
85	0xca	-0.21217324
86	0x4c	0.29861417
87	0x82	-0.49507087
88	0x0f	0.05893701
89	0x83	-0.49114174
90	0x08	0.031433072
91	0x14	0.07858268
92	0xcf	-0.19252756
93	0x11	0.066795275
94	0x3d	0.23967718
95	0xfe	-0.007858268
96	0x22	0.13359055
97	0x1d	0.11394489
98	0x42	0.25932285
99	0x10	0.062866144
100	0xc8	-0.2200315
101	0x22	0.13359055
102	0xe8	-0.09429921
103	0x33	0.20038584
104	0x2e	0.18074016
105	0x2c	0.1728819
106	0xbd	-0.263252
107	0xfb	-0.01964567
108	0x24	0.14144883
109	0xc0	-0.25146458
110	0xe1	-0.12180316
111	0x4e	0.30647245
112	0xea	-0.08644095
113	0x17	0.09037008
114	0x13	0.07465354
115	0xcd	-0.20038584
116	0x95	-0.42041734
117	0xdc	-0.14144883
118	0x05	0.01964567
119	0x05	0.01964567
120	0x10	0.062866144
121	0xe1	-0.12180316
122	0x04	0.015716536
123	0xf0	-0.062866144
124	0xef	-0.066795275
125	0xe0	-0.12573229
126	0x0b	0.043220475
127	0xc3	-0.23967718
128	0xf7	-0.035362206
129	0x17	0.09037008
130	0xe8	-0.09429921
131	0xfb	-0.01964567
132	0x07	0.027503937
133	0x1a	0.10215748
134	0xea	-0.08644095
135	0xbc	-0.2671811
136	0xe8	-0.09429921
137	0xd1	-0.1846693
138	0x04	0.015716536
139	0xee	-0.07072441
140	0x0b	0.043220475
141	0x25	0.14537796
142	0xd7	-0.16109449
143	0xfb	-0.01964567
144	0x64	0.3929134
145	0x9d	-0.38898426
146	0x9f	-0.381126
147	0x6d	0.42827561
148	0x3c	0.23574804
149	0xd7	-0.16109449
150	0x81	-0.499
151	0x96	-0.4164882
152	0x7e	0.49507087
153	0x32	0.1964567
154	0x93	-0.42827561
155	0x7d	0.49114174
156	0x52	0.32218897
157	0xb6	-0.29075593
158	0x48	0.28289765
159	0xd4	-0.1728819
160	0x33	0.20038584
161	0x9c	-0.3929134
162	0x3f	0.24753544
163	0x7c	0.48721263
164	0xe4	-0.11001575
165	0x96	-0.4164882
166	0xff	-0.003929134
167	0xd9	-0.15323623
168	0x17	0.09037008
169	0xf0	-0.062866144
170	0x2d	0.17681102
171	0x0a	0.03929134
172	0x54	0.33004725
173	0xe0	-0.12573229
174	0x9b	-0.39684254
175	0xcc	-0.20431496
176	0xd1	-0.1846693
177	0x97	-0.41255906
178	0x19	0.09822835
179	0x0a	0.03929134
180	0xee	-0.07072441
181	0xe9	-0.09037008
182	0xcc	-0.20431496
183	0xe4	-0.11001575
184	0x08	0.031433072
185	0x3e	0.24360631
186	0x03	0.0117874015
187	0xc0	-0.25146458
188	0x18	0.09429921
189	0x20	0.12573229
190	0x41	0.2553937
191	0x3c	0.23574804
192	0xe9	-0.09037008
193	0xd7	-0.16109449
194	0xf5	-0.043220475
195	0x0a	0.03929134
196	0xbc	-0.2671811
197	0xd8	-0.15716536
198	0xd8	-0.15716536
199	0x2f	0.1846693
200	0xe2	-0.11787402
201	0x06	0.023574803
202	0xea	-0.08644095
203	0xa7	-0.3496929
204	0xd2	-0.18074016
205	0xe4	-0.11001575
206	0x01	0.003929134
207	0xd1	-0.1846693
208	0x0a	0.03929134
209	0xd8	-0.15716536
210	0x0e	0.055007875
211	0x2a	0.16502362
212	0x08	0.031433072
213	0x15	0.08251181
214	0xfd	-0.0117874015
215	0x04	0.015716536
216	0x04	0.015716536
217	0xf0	-0.062866144
218	0xfe	-0.007858268
219	0x11	0.066795275
220	0xe9	-0.09037008
221	0xca	-0.21217324
222	0x18	0.09429921
223	0x07	0.027503937
224	0xc8	-0.2200315
225	0x29	0.16109449
226	0x4a	0.29075593
227	0xcd	-0.20038584
228	0x03	0.0117874015
229	0xf3	-0.05107874
230	0x02	0.007858268
231	0x12	0.07072441
232	0x17	0.09037008
233	0xf5	-0.043220475
234	0x23	0.13751969
235	0xf7	-0.035362206
236	0x09	0.035362206
237	0xfb	-0.01964567
238	0x2e	0.18074016
239	0x78	0.47149608
240	0x18	0.09429921
241	0x77	0.46756694
242	0xf2	-0.055007875
243	0xd6	-0.16502362
244	0x06	0.023574803
245	0x13	0.07465354
246	0xe4	-0.11001575
247	0x8b	-0.4597087
248	0xc9	-0.21610238
249	0x82	-0.49507087
250	0x44	0.2671811
251	0xb6	-0.29075593
252	0x10	0.062866144
253	0x2c	0.1728819
254	0x02	0.007858268
255	0x36	0.21217324

model_1/noise_gru/gru_cell_4/MatMul_1 i1 [144, 48] scale=0.003929134 zero_point=0
0	0xa8	-0.3457638
1	0xab	-0.3339764
2	0x1a	0.10215748
3	0x8a	-0.4636378
4	0xf7	-0.035362206
5	0x2d	0.17681102
6	0xe9	-0.09037008
7	0x82	-0.49507087
8	0x08	0.031433072
9	0x79	0.4754252
10	0xcf	-0.19252756
11	0xc9	-0.21610238
12	0xa9	-0.34183466
13	0xe1	-0.12180316
14	0xc0	-0.25146458
15	0x46	0.27503937
16	0x3c	0.23574804
17	0xeb	-0.08251181
18	0x2b	0.16895276
19	0xa2	-0.3693386
20	0xb7	-0.2868268
21	0x38	0.2200315
22	0xeb	-0.08251181
23	0x0a	0.03929134
24	0xa4	-0.36148033
25	0x59	0.3496929
26	0x28	0.15716536
27	0x9c	-0.3929134
28	0xdc	-0.14144883
29	0x23	0.13751969
30	0x1d	0.11394489
31	0xac	-0.33004725
32	0xe2	-0.11787402
33	0xd1	-0.1846693
34	0x90	-0.440063
35	0xd0	-0.18859842
36	0x7d	0.49114174
37	0x81	-0.499
38	0x8c	-0.45577955
39	0xb8	-0.28289765
40	0x75	0.4597087
41	0x14	0.07858268
42	0xb7	-0.2868268
43	0x87	-0.4754252
44	0x28	0.15716536
45	0xf5	-0.043220475
46	0xe0	-0.12573229
47	0x1e	0.11787402
48	0xce	-0.1964567
49	0xe5	-0.10608662
50	0x3b	0.2318189
51	0xb2	-0.30647245
52	0x16	0.08644095
53	0x5f	0.37326774
54	0x17	0.09037008
55	0xd1	-0.1846693
56	0x05	0.01964567
57	0xc3	-0.23967718
58	0x0a	0.03929134
59	0xfc	-0.015716536
60	0x11	0.066795275
61	0x09	0.035362206
62	0x3c	0.23574804
63	0xe9	-0.09037008
64	0x34	0.20431496
65	0x21	0.12966143
66	0x6f	0.43613386
67	0x05	0.01964567
68	0x53	0.3261181
69	0x03	0.0117874015
70	0xb8	-0.28289765
71	0x00	0.0
72	0x39	0.22396064
73	0x03	0.0117874015
74	0x0a	0.03929134
75	0xc6	-0.22788978
76	0xf5	-0.043220475
77	0xd4	-0.1728819
78	0x4c	0.29861417
79	0x05	0.01964567
80	0x5c	0.36148033
81	0xfe	-0.007858268
82	0x40	0.25146458
83	0xa3	-0.36540946
84	0xe8	-0.09429921
85	0xa2	-0.3693386
86	0x43	0.263252
87	0xe0	-0.12573229
88	0xa7	-0.3496929
89	0x84	-0.48721263
90	0xca	-0.21217324
91	0xa1	-0.37326774
92	0x08	0.031433072
93	0xb9	-0.2789685
94	0xb8	-0.28289765
95	0x42	0.25932285
96	0x6b	0.42041734
97	0xf9	-0.027503937
98	0xde	-0.13359055
99	0x36	0.21217324
100	0xbd	-0.263252
101	0x42	0.25932285
102	0x2c	0.1728819
103	0xac	-0.33004725
104	0x31	0.19252756
105	0x5b	0.3575512
106	0xc0	-0.25146458
107	0xc1	-0.24753544
108	0x5f	0.37326774
109	0x5b	0.3575512
110	0x7c	0.48721263
111	0xa5	-0.3575512
112	0x7d	0.49114174
113	0x17	0.09037008
114	0x23	0.13751969
115	0xd6	-0.16502362
116	0x47	0.2789685
117	0xba	-0.27503937
118	0x4a	0.29075593
119	0x31	0.19252756
120	0x76	0.4636378
121	0xb4	-0.29861417
122	0x78	0.47149608
123	0x7e	0.49507087
124	0x0b	0.043220475
125	0x98	-0.40862992
126	0x30	0.18859842
127	0x65	0.39684254
128	0x25	0.14537796
129	0xbb	-0.27111024
130	0x39	0.22396064
131	0x7b	0.4832835
132	0x39	0.22396064
133	0xbc	-0.2671811
134	0x89	-0.46756694
135	0xa2	-0.3693386
136	0x24	0.14144883
137	0x2c	0.1728819
138	0x36	0.21217324
139	0xa2	-0.3693386
140	0xf1	-0.05893701
141	0xec	-0.07858268
142	0x7b	0.4832835
143	0x49	0.2868268
144	0xcc	-0.20431496
145	0xc0	-0.25146458
146	0xc9	-0.21610238
147	0xb9	-0.2789685
148	0xad	-0.3261181
149	0xf6	-0.03929134
150	0x9b	-0.39684254
151	0x1e	0.11787402
152	0x98	-0.40862992
153	0x2d	0.17681102
154	0x15	0.08251181
155	0xca	-0.21217324
156	0x83	-0.49114174
157	0xff	-0.003929134
158	0xb8	-0.28289765
159	0x17	0.09037008
160	0x52	0.32218897
161	0x9c	-0.3929134
162	0x3a	0.22788978
163	0x23	0.13751969
164	0xce	-0.1964567
165	0xca	-0.21217324
166	0xde	-0.13359055
167	0x0f	0.05893701
168	0xf5	-0.043220475
169	0xae	-0.32218897
170	0x8f	-0.44399214
171	0xbe	-0.25932285
172	0x95	-0.42041734
173	0xfe	-0.007858268
174	0xc2	-0.24360631
175	0xdc	-0.14144883
176	0xaa	-0.33790553
177	0x45	0.27111024
178	0x8b	-0.4597087
179	0x66	0.40077168
180	0x00	0.0
181	0xf1	-0.05893701
182	0xc8	-0.2200315
183	0xfa	-0.023574803
184	0x65	0.39684254
185	0x01	0.003929134
186	0xd8	-0.15716536
187	0x10	0.062866144
188	0x41	0.2553937
189	0x0a	0.03929134
190	0x83	-0.49114174
191	0x2f	0.1846693
192	0x35	0.2082441
193	0xb0	-0.31433073
194	0x0c	0.047149606
195	0xef	-0.066795275
196	0xc4	-0.23574804
197	0x7a	0.47935435
198	0x10	0.062866144
199	0xc1	-0.24753544
200	0x03	0.0117874015
201	0x87	-0.4754252
202	0x7e	0.49507087
203	0xbe	-0.25932285
204	0xec	-0.07858268
205	0x29	0.16109449
206	0x02	0.007858268
207	0x2c	0.1728819
208	0x10	0.062866144
209	0x4b	0.29468504
210	0x35	0.2082441
211	0x79	0.4754252
212	0x5c	0.36148033
213	0x00	0.0
214	0xe3	-0.11394489
215	0x0a	0.03929134
216	0xe0	-0.12573229
217	0xd4	-0.1728819
218	0x4e	0.30647245
219	0x40	0.25146458
220	0xf4	-0.047149606
221	0x45	0.27111024
222	0x41	0.2553937
223	0xea	-0.08644095
224	0x61	0.381126
225	0x4c	0.29861417
226	0x8c	-0.45577955
227	0xb2	-0.30647245
228	0x42	0.25932285
229	0xd9	-0.15323623
230	0xe2	-0.11787402
231	0xf6	-0.03929134
232	0x48	0.28289765
233	0xde	-0.13359055
234	0x16	0.08644095
235	0x2f	0.1846693
236	0x6b	0.42041734
237	0x33	0.20038584
238	0xd7	-0.16109449
239	0xba	-0.27503937
240	0xd7	-0.16109449
241	0x34	0.20431496
242	0x43	0.263252
243	0x3d	0.23967718
244	0xf5	-0.043220475
245	0x75	0.4597087
246	0x14	0.07858268
247	0x50	0.31433073
248	0x75	0.4597087
249	0xfc	-0.015716536
250	0xdd	-0.13751969
251	0x3b	0.2318189
252	0x5c	0.36148033
253	0x11	0.066795275
254	0x7c	0.48721263
255	0x74	0.45577955

MatMul_1;model_1/vad_gru/gru_cell_3/StatefulPartitionedCall/MatMul_1 i1 [72, 24] scale=0.003929134 zero_point=0
0	0x60	0.37719685
1	0x99	-0.40470082
2	0x8d	-0.4518504
3	0xf1	-0.05893701
4	0xc9	-0.21610238
5	0x7a	0.47935435
6	0xd2	-0.18074016
7	0xae	-0.32218897
8	0xbf	-0.2553937
9	0xfd	-0.0117874015
10	0xb7	-0.2868268
11	0xfe	-0.007858268
12	0x66	0.40077168
13	0xeb	-0.08251181
14	0xe3	-0.11394489
15	0x1d	0.11394489
16	0x18	0.09429921
17	0x81	-0.499
18	0x17	0.09037008
19	0x36	0.21217324
20	0x9a	-0.40077168
21	0xcf	-0.19252756
22	0x81	-0.499
23	0xad	-0.3261181
24	0x0e	0.055007875
25	0x79	0.4754252
26	0x21	0.12966143
27	0xfd	-0.0117874015
28	0xfd	-0.0117874015
29	0x97	-0.41255906
30	0xac	-0.33004725
31	0x12	0.07072441
32	0x23	0.13751969
33	0x4d	0.3025433
34	0x24	0.14144883
35	0xf9	-0.027503937
36	0x8d	-0.4518504
37	0x87	-0.4754252
38	0x4a	0.29075593
39	0xc1	-0.24753544
40	0x9a	-0.40077168
41	0x85	-0.4832835
42	0xfe	-0.007858268
43	0x27	0.15323623
44	0x78	0.47149608
45	0x31	0.19252756
46	0xf1	-0.05893701
47	0x21	0.12966143
48	0x1e	0.11787402
49	0x59	0.3496929
50	0x81	-0.499
51	0xd4	-0.1728819
52	0x7e	0.49507087
53	0x84	-0.48721263
54	0x38	0.2200315
55	0x7d	0.49114174
56	0x36	0.21217324
57	0x1f	0.12180316
58	0x7e	0.49507087
59	0x07	0.027503937
60	0xd7	-0.16109449
61	0x86	-0.47935435
62	0x78	0.47149608
63	0xc2	-0.24360631
64	0x9c	-0.3929134
65	0x5c	0.36148033
66	0x10	0.062866144
67	0x83	-0.49114174
68	0x57	0.34183466
69	0xc2	-0.24360631
70	0x2c	0.1728819
71	0x95	-0.42041734
72	0x7e	0.49507087
73	0x60	0.37719685
74	0x7b	0.4832835
75	0x83	-0.49114174
76	0x82	-0.49507087
77	0x3b	0.2318189
78	0xa0	-0.37719685
79	0xd0	-0.18859842
80	0xb7	-0.2868268
81	0x72	0.44792128
82	0x05	0.01964567
83	0x7b	0.4832835
84	0x4d	0.3025433
85	0xed	-0.07465354
86	0xca	-0.21217324
87	0x78	0.47149608
88	0x7d	0.49114174
89	0xca	-0.21217324
90	0x7d	0.49114174
91	0xb1	-0.3104016
92	0x4f	0.3104016
93	0x98	-0.40862992
94	0xc3	-0.23967718
95	0x9f	-0.381126
96	0x66	0.40077168
97	0xd7	-0.16109449
98	0x41	0.2553937
99	0x3d	0.23967718
100	0x2f	0.1846693
101	0x2c	0.1728819
102	0xcf	-0.19252756
103	0xb5	-0.29468504
104	0xec	-0.07858268
105	0x3d	0.23967718
106	0x7a	0.47935435
107	0x12	0.07072441
108	0x30	0.18859842
109	0x42	0.25932285
110	0xa2	-0.3693386
111	0xf6	-0.03929134
112	0x52	0.32218897
113	0xfa	-0.023574803
114	0xdd	-0.13751969
115	0xf9	-0.027503937
116	0xf5	-0.043220475
117	0x76	0.4636378
118	0xb7	-0.2868268
119	0x7e	0.49507087
120	0x64	0.3929134
121	0x9b	-0.39684254
122	0x81	-0.499
123	0xb2	-0.30647245
124	0xf0	-0.062866144
125	0xd9	-0.15323623
126	0xee	-0.07072441
127	0x51	0.31825987
128	0x01	0.003929134
129	0xe6	-0.10215748
130	0xfa	-0.023574803
131	0xee	-0.07072441
132	0x5a	0.35362205
133	0xdb	-0.14537796
134	0xd5	-0.16895276
135	0x75	0.4597087
136	0x1c	0.11001575
137	0x89	-0.46756694
138	0x16	0.08644095
139	0xda	-0.14930709
140	0x2b	0.16895276
141	0xd3	-0.17681102
142	0x05	0.01964567
143	0x3a	0.22788978
144	0x95	-0.42041734
145	0xa9	-0.34183466
146	0x74	0.45577955
147	0xf3	-0.05107874
148	0x7f	0.499
149	0xd6	-0.16502362
150	0x7d	0.49114174
151	0x04	0.015716536
152	0x2b	0.16895276
153	0x07	0.027503937
154	0x08	0.031433072
155	0x52	0.32218897
156	0x52	0.32218897
157	0x7c	0.48721263
158	0x19	0.09822835
159	0xed	-0.07465354
160	0xc3	-0.23967718
161	0xaf	-0.31825987
162	0x45	0.27111024
163	0xfb	-0.01964567
164	0x30	0.18859842
165	0xb4	-0.29861417
166	0xd6	-0.16502362
167	0x86	-0.47935435
168	0x21	0.12966143
169	0x1f	0.12180316
170	0xfb	-0.01964567
171	0x05	0.01964567
172	0xd0	-0.18859842
173	0xb1	-0.3104016
174	0x8d	-0.4518504
175	0x7a	0.47935435
176	0xf1	-0.05893701
177	0x1c	0.11001575
178	0xdd	-0.13751969
179	0x88	-0.47149608
180	0x31	0.19252756
181	0xaa	-0.33790553
182	0x06	0.023574803
183	0x06	0.023574803
184	0xf8	-0.031433072
185	0xf3	-0.05107874
186	0x28	0.15716536
187	0xa9	-0.34183466
188	0xf0	-0.062866144
189	0x5c	0.36148033
190	0x13	0.07465354
191	0x8d	-0.4518504
192	0x7b	0.4832835
193	0x2b	0.16895276
194	0x7c	0.48721263
195	0x81	-0.499
196	0x8c	-0.45577955
197	0xec	-0.07858268
198	0x7e	0.49507087
199	0xc0	-0.25146458
200	0x88	-0.47149608
201	0x7c	0.48721263
202	0xf7	-0.035362206
203	0x81	-0.499
204	0xaf	-0.31825987
205	0xdc	-0.14144883
206	0x84	-0.48721263
207	0x74	0.45577955
208	0x7b	0.4832835
209	0x76	0.4636378
210	0x71	0.44399214
211	0x94	-0.42434648
212	0x4d	0.3025433
213	0x42	0.25932285
214	0xdb	-0.14537796
215	0x5a	0.35362205
216	0x65	0.39684254
217	0xf1	-0.05893701
218	0x78	0.47149608
219	0x83	-0.49114174
220	0x8a	-0.4636378
221	0x3a	0.22788978
222	0xd4	-0.1728819
223	0x8a	-0.4636378
224	0x8b	-0.4597087
225	0x79	0.4754252
226	0xd8	-0.15716536
227	0xe8	-0.09429921
228	0xc3	-0.23967718
229	0x39	0.22396064
230	0xf2	-0.055007875
231	0x73	0.4518504
232	0x6b	0.42041734
233	0x87	-0.4754252
234	0x74	0.45577955
235	0x11	0.066795275
236	0x11	0.066795275
237	0xc8	-0.2200315
238	0x92	-0.43220475
239	0xcb	-0.2082441
240	0xff	-0.003929134
241	0x89	-0.46756694
242	0x8b	-0.4597087
243	0x5e	0.3693386
244	0x90	-0.440063
245	0x96	-0.4164882
246	0xa3	-0.36540946
247	0xe6	-0.10215748
248	0x4c	0.29861417
249	0xfd	-0.0117874015
250	0x73	0.4518504
251	0x28	0.15716536
252	0x2a	0.16502362
253	0x5f	0.37326774
254	0x0f	0.05893701
255	0x69	0.41255906

MatMul;model_1/vad_gru/gru_cell_3/StatefulPartitionedCall/MatMul i1 [72, 24] scale=0.003929134 zero_point=0
0	0x31	0.19252756
1	0x81	-0.499
2	0x71	0.44399214
3	0x03	0.0117874015
4	0xbc	-0.2671811
5	0x6c	0.42434648
6	0x7a	0.47935435
7	0xa2	-0.3693386
8	0x9e	-0.38505512
9	0x62	0.38505512
10	0x0d	0.05107874
11	0xaa	-0.33790553
12	0xfb	-0.01964567
13	0x27	0.15323623
14	0x7e	0.49507087
15	0xf7	-0.035362206
16	0x76	0.4636378
17	0x24	0.14144883
18	0x67	0.40470082
19	0x60	0.37719685
20	0xfa	-0.023574803
21	0x8e	-0.44792128
22	0x4f	0.3104016
23	0x18	0.09429921
24	0xfb	-0.01964567
25	0x5e	0.3693386
26	0x4d	0.3025433
27	0xc3	-0.23967718
28	0xfe	-0.007858268
29	0xec	-0.07858268
30	0x67	0.40470082
31	0xcb	-0.2082441
32	0xff	-0.003929134
33	0x07	0.027503937
34	0x7e	0.49507087
35	0xe5	-0.10608662
36	0x0e	0.055007875
37	0x11	0.066795275
38	0xfb	-0.01964567
39	0xc7	-0.22396064
40	0x6c	0.42434648
41	0x03	0.0117874015
42	0x48	0.28289765
43	0x62	0.38505512
44	0x7d	0.49114174
45	0x84	-0.48721263
46	0x97	-0.41255906
47	0x85	-0.4832835
48	0xc3	-0.23967718
49	0x44	0.2671811
50	0x86	-0.47935435
51	0xd4	-0.1728819
52	0x64	0.3929134
53	0x3a	0.22788978
54	0xe5	-0.10608662
55	0xfa	-0.023574803
56	0x6d	0.42827561
57	0xd0	-0.18859842
58	0x04	0.015716536
59	0x5d	0.36540946
60	0xb2	-0.30647245
61	0xbb	-0.27111024
62	0xf5	-0.043220475
63	0x36	0.21217324
64	0x52	0.32218897
65	0x43	0.263252
66	0xc6	-0.22788978
67	0x91	-0.43613386
68	0xaf	-0.31825987
69	0xfa	-0.023574803
70	0xd6	-0.16502362
71	0x5d	0.36540946
72	0x7f	0.499
73	0x59	0.3496929
74	0x7e	0.49507087
75	0x0c	0.047149606
76	0xa6	-0.35362205
77	0x6c	0.42434648
78	0xc1	-0.24753544
79	0x1c	0.11001575
80	0x08	0.031433072
81	0x31	0.19252756
82	0xc6	-0.22788978
83	0xbb	-0.27111024
84	0xa1	-0.37326774
85	0x28	0.15716536
86	0xf3	-0.05107874
87	0x8f	-0.44399214
88	0x25	0.14537796
89	0xef	-0.066795275
90	0x38	0.2200315
91	0x6a	0.4164882
92	0x52	0.32218897
93	0x9a	-0.40077168
94	0xb6	-0.29075593
95	0xad	-0.3261181
96	0x08	0.031433072
97	0xb4	-0.29861417
98	0x84	-0.48721263
99	0xde	-0.13359055
100	0x29	0.16109449
101	0xb8	-0.28289765
102	0x17	0.09037008
103	0x2a	0.16502362
104	0x4d	0.3025433
105	0x1d	0.11394489
106	0x24	0.14144883
107	0x83	-0.49114174
108	0xc6	-0.22788978
109	0x19	0.09822835
110	0xab	-0.3339764
111	0xb6	-0.29075593
112	0x89	-0.46756694
113	0x85	-0.4832835
114	0x5c	0.36148033
115	0xa1	-0.37326774
116	0x22	0.13359055
117	0xc0	-0.25146458
118	0x34	0.20431496
119	0x61	0.381126
120	0x79	0.4754252
121	0x62	0.38505512
122	0x18	0.09429921
123	0x79	0.4754252
124	0xf1	-0.05893701
125	0x02	0.007858268
126	0x5e	0.3693386
127	0xef	-0.066795275
128	0xca	-0.21217324
129	0x58	0.3457638
130	0xa6	-0.35362205
131	0x9e	-0.38505512
132	0xab	-0.3339764
133	0x94	-0.42434648
134	0x53	0.3261181
135	0xb4	-0.29861417
136	0xcd	-0.20038584
137	0x1f	0.12180316
138	0xb0	-0.31433073
139	0x70	0.440063
140	0x52	0.32218897
141	0xbc	-0.2671811
142	0x11	0.066795275
143	0x95	-0.42041734
144	0x90	-0.440063
145	0x37	0.21610238
146	0x37	0.21610238
147	0x08	0.031433072
148	0x42	0.25932285
149	0x28	0.15716536
150	0x0f	0.05893701
151	0x12	0.07072441
152	0x79	0.4754252
153	0xa5	-0.3575512
154	0x17	0.09037008
155	0x7c	0.48721263
156	0xca	-0.21217324
157	0xa5	-0.3575512
158	0x82	-0.49507087
159	0x3e	0.24360631
160	0x77	0.46756694
161	0x22	0.13359055
162	0x22	0.13359055
163	0x19	0.09822835
164	0x01	0.003929134
165	0xed	-0.07465354
166	0x89	-0.46756694
167	0x7d	0.49114174
168	0xaf	-0.31825987
169	0xb8	-0.28289765
170	0xb7	-0.2868268
171	0x4d	0.3025433
172	0xff	-0.003929134
173	0x7f	0.499
174	0x0a	0.03929134
175	0x85	-0.4832835
176	0x95	-0.42041734
177	0x8d	-0.4518504
178	0xc8	-0.2200315
179	0x28	0.15716536
180	0x9e	-0.38505512
181	0x94	-0.42434648
182	0xda	-0.14930709
183	0x02	0.007858268
184	0x74	0.45577955
185	0x2e	0.18074016
186	0xb3	-0.3025433
187	0x0e	0.055007875
188	0x0b	0.043220475
189	0x6b	0.42041734
190	0x58	0.3457638
191	0xd2	-0.18074016
192	0x1f	0.12180316
193	0x58	0.3457638
194	0x4e	0.30647245
195	0x22	0.13359055
196	0xeb	-0.08251181
197	0x06	0.023574803
198	0xb8	-0.28289765
199	0x2b	0.16895276
200	0xda	-0.14930709
201	0x2f	0.1846693
202	0x27	0.15323623
203	0xbf	-0.2553937
204	0xe1	-0.12180316
205	0x15	0.08251181
206	0xef	-0.066795275
207	0x9e	-0.38505512
208	0x87	-0.4754252
209	0x60	0.37719685
210	0x2d	0.17681102
211	0x7e	0.49507087
212	0xf2	-0.055007875
213	0x85	-0.4832835
214	0xd5	-0.16895276
215	0x96	-0.4164882
216	0x7f	0.499
217	0x50	0.31433073
218	0x79	0.4754252
219	0x1f	0.12180316
220	0xfe	-0.007858268
221	0xca	-0.21217324
222	0xe1	-0.12180316
223	0xc6	-0.22788978
224	0x2f	0.1846693
225	0x3a	0.22788978
226	0x1d	0.11394489
227	0x8f	-0.44399214
228	0x0e	0.055007875
229	0xfd	-0.0117874015
230	0x46	0.27503937
231	0x81	-0.499
232	0xf7	-0.035362206
233	0x0d	0.05107874
234	0xae	-0.32218897
235	0x7f	0.499
236	0x60	0.37719685
237	0x9c	-0.3929134
238	0xc4	-0.23574804
239	0x89	-0.46756694
240	0xe5	-0.10608662
241	0x35	0.2082441
242	0x84	-0.48721263
243	0x6d	0.42827561
244	0x17	0.09037008
245	0x84	-0.48721263
246	0x47	0.2789685
247	0x05	0.01964567
248	0x07	0.027503937
249	0x78	0.47149608
250	0xe3	-0.11394489
251	0x3d	0.23967718
252	0x28	0.15716536
253	0x4f	0.3104016
254	0x18	0.09429921
255	0xfa	-0.023574803

model_1/vad_output/Tensordot/MatMul i1 [1, 24] scale=0.003929134 zero_point=0
0	0x7f	0.499
1	0x7f	0.499
2	0x7f	0.499
3	0x81	-0.499
4	0x81	-0.499
5	0x81	-0.499
6	0x7e	0.49507087
7	0x7f	0.499
8	0x81	-0.499
9	0x7f	0.499
10	0x81	-0.499
11	0x81	-0.499
12	0x81	-0.499
13	0x82	-0.49507087
14	0x81	-0.499
15	0x7f	0.499
16	0x7f	0.499
17	0x7d	0.49114174
18	0x7f	0.499
19	0x81	-0.499
20	0x7e	0.49507087
21	0x7f	0.499
22	0x7f	0.499
23	0x7f	0.499
